Deep Learning/hw4/test_resources/test_model_weights.pth (torch, 12263 bytes, 2 tensors)

fc1.weight f4 [50, 55]
000000 09 21 d3 3d 64 35 e5 3d c6 63 01 bd 34 ad fd 3d
       0.10309035 0.11191824 -0.031589292 0.123865515
000010 17 06 f2 bc 5a e6 de 3c 34 72 86 bd ef 2d a2 3d
       -0.02954392 0.02720945 -0.06564751 0.079189174
000020 a8 70 f3 3d d3 97 ca bd ce 07 f0 3d e4 bc ce 3c
       0.11886722 -0.098922394 0.117202386 0.025236554
000030 13 06 cc 3d 0c 99 95 3c 47 28 85 3d fb f5 9b bc
       0.09962096 0.018261455 0.06501823 -0.019038191
000040 c1 e1 d4 3d 64 45 a3 3c 3d eb 80 bd 0f c8 0c 3d
       0.10394622 0.019930549 -0.06294868 0.03437048
000050 88 77 7e bd 68 8a 81 bc b5 52 60 bd ff 30 b7 3d
       -0.062125713 -0.015813068 -0.054766376 0.08944892
000060 82 fc d9 bd 3b 9e 7e bd f4 f4 1b bd f1 0a a6 bd
       -0.10643865 -0.06216262 -0.038075402 -0.08107556
000070 4d 83 50 3c fa 5f 08 be 46 65 f9 3d 23 95 ea bd
       0.012726617 -0.13317862 0.121775195 -0.11454227
000080 75 32 d5 3d fe d3 b7 3c f5 55 33 bd f5 a5 aa 3d
       0.104100145 0.022439953 -0.043783147 0.08332435
000090 77 27 ac 3c f4 1e df 3d d2 82 71 3c 99 2e 2e bd
       0.021014912 0.10894576 0.014740663 -0.042524908
0000a0 2c 65 14 3d 0c c6 15 bd 07 71 68 3d 0a 8e f6 3d
       0.036229298 -0.036565825 0.056748416 0.120388106
0000b0 e8 a1 9f 3d ce 73 71 bd b6 69 9f 3d be a4 c5 3c
       0.07794553 -0.05894833 0.07783835 0.024126407
0000c0 63 3d 8c 3d f2 50 a8 bd c7 ae 08 be 7f 63 55 bd
       0.06847646 -0.08218564 -0.13347922 -0.05209684
0000d0 aa d0 d3 bd fa 97 e2 3d bd 14 1f 3d a2 c5 64 3d
       -0.10342534 0.110641435 0.038838137 0.05585254
0000e0 27 ac 2e 3d da b9 19 bb 79 1e d8 3d be 35 c4 bd
       0.042644646 -0.0023456723 0.10552687 -0.09580563
0000f0 c1 19 0b 3c 29 7c bc bd e0 4d 2a 3d 32 34 3e bd
       0.008490027 -0.09203369 0.041578174 -0.046436496
000100 2f 3c 29 3d c9 22 e6 bc d6 09 e5 3d 0c ad a3 bd
       0.04131716 -0.028092759 0.11183517 -0.079919904
000110 58 b2 a4 bd e3 b4 a4 bd 16 62 f8 3d 5c 0e 38 3d
       -0.08041829 -0.08042314 0.121280834 0.04493557
000120 25 dd 04 3e e3 e6 e3 bd 54 f4 08 be 30 0d d8 bd
       0.12974985 -0.111280225 -0.13374454 -0.1054939
000130 bd c3 b9 bd 9b b4 5f 3d 54 c4 45 3d 2e 76 e5 3d
       -0.09070537 0.0546156 0.048282936 0.112041816
000140 ae 9c 8e bd 99 41 bc bd 35 85 92 3d 74 3e 5f bd
       -0.06963478 -0.09192199 0.071543135 -0.05450292
000150 77 9a a7 3d ed 0f 03 bd c6 f8 9d 3d bc 8f d6 bd
       0.08183759 -0.03199761 0.077134654 -0.10476634
000160 34 5c 8b bd 77 62 28 3d ce 85 e9 3c 9b d0 0c bd
       -0.06804696 0.04110953 0.028506186 -0.03437863
000170 1e 9b a4 3d 19 bb bb 3d 1d 42 c8 bd cd 6d 93 bd
       0.08037399 0.091665454 -0.09778235 -0.07198677
000180 b3 dc fc 3d 91 5d 3a bd 0e cd 43 bd 0a 9a 05 be
       0.123467825 -0.045499388 -0.047802977 -0.13047042
000190 e8 24 9e bd ba f7 09 3d 04 cd 91 bc 7e 74 c8 bd
       -0.07721883 0.033683516 -0.017797954 -0.09787844
0001a0 a7 48 4f 3b 6e a2 bc bd 62 49 ea bd 15 11 98 bd
       0.0031628998 -0.092106685 -0.11439778 -0.07425133
0001b0 19 b1 f1 bd 2f d6 af bd aa 05 0a 3e 0b a2 d0 3c
       -0.11801357 -0.08585774 0.13478723 0.025467893
0001c0 b0 32 2a 3d 0c c8 00 be 9c 5e b5 bd 78 d6 37 bd
       0.041552246 -0.12576312 -0.08855936 -0.044882268
0001d0 9c ba ac 3c 04 fe f2 bd 1e f9 6d bd dc 52 a5 bd
       0.021085076 -0.11864856 -0.058098905 -0.08072445
0001e0 ff e9 c3 39 a8 83 4d bd e6 16 19 bc 04 21 bb bd
       0.0003736764 -0.050174385 -0.009343838 -0.091371566
0001f0 b1 8c bd bd 94 1b a1 bd 6b 0d 3d bd 32 f6 d9 bd
       -0.092553504 -0.07866588 -0.046155374 -0.10642661
000200 9b 8b e7 3d a4 39 db bc ba 99 ed 3d 94 16 2c 3d
       0.113059245 -0.026760884 0.11601587 0.04201372
000210 4b d8 e9 bd 6a 1b bf 3d b6 f6 17 bd 74 b6 53 bd
       -0.11418208 0.09331401 -0.037100516 -0.051687673
000220 d0 39 e5 bd 15 45 09 be 2b 05 1e 3d 8a 4b f1 bc
       -0.111926675 -0.13405259 0.038579147 -0.029454965
000230 61 06 57 3d c9 a0 e2 bd 03 06 cd 3d e9 b5 ca bd
       0.052496318 -0.110658236 0.10010912 -0.09897978
000240 8d bc be bc 27 b8 e6 3c 69 90 8e 3d c9 f0 de 3d
       -0.023283267 0.028163983 0.06961138 0.1088577
000250 3e 90 fb 3d 9d f7 da bd 39 ff 0a 3d 7d 8f 6d bd
       0.122833714 -0.1069176 0.033934806 -0.05799817
000260 c3 18 72 bc 7d b2 ce bd 21 89 fb 3d 9d ae ca bd
       -0.0147764115 -0.10092638 0.12282015 -0.09896586
000270 05 97 93 3d 07 1a 42 3d 81 79 33 3d f8 4c 95 bd
       0.07206539 0.047388103 0.043817047 -0.07290071
000280 4e 02 fb 3d 00 bd f2 3c d3 18 8e 3c 49 5c f3 bd
       0.12256299 0.029631138 0.017345821 -0.11882836
000290 e0 d9 67 3d d0 b6 a5 bc 2c 06 7d bd 35 33 ed 3d
       0.056604266 -0.020228773 -0.061773464 0.115820326
0002a0 70 45 f6 3c dd c9 98 bd 7b c5 8b bd 6e 01 d3 bb
       0.030062407 -0.07460377 -0.06824776 -0.0064393794
0002b0 57 31 9a 3d ea 21 0d bd c7 90 9d bd fb 21 3d bd
       0.07528942 -0.03445617 -0.0769363 -0.046174984
0002c0 70 4e ce bd 40 f8 44 3d c1 c0 d5 3d 8d fd 01 be
       -0.100735545 0.048088312 0.104371555 -0.12694378
0002d0 ea 45 00 3d 72 a8 8e 3d 4d 4c c8 3c 72 b0 44 bd
       0.031316675 0.06965722 0.024450446 -0.048019834
0002e0 b0 22 90 3d 24 1f 91 3d 8e 85 4e 3d 7c 1a c2 bc
       0.07037866 0.07086018 0.050420336 -0.02369427
0002f0 3d 40 12 bd 1c 58 6c 3c 3b 22 c3 bc 5b 96 24 bd
       -0.035705794 0.014425304 -0.023820033 -0.040182453
000300 b7 84 b0 3d 3b 53 ed 3d ed b4 5a bc 89 51 f7 bc
       0.08619063 0.115881406 -0.0133488 -0.030190246
000310 40 f3 00 3b 94 e8 03 bc bd c7 04 3d 38 c6 1a 3d
       0.0019676238 -0.008051056 0.032417048 0.037786692
000320 31 d1 fa bd 3b d2 4b bd 53 8e e8 3d 29 27 57 3d
       -0.12246931 -0.04976104 0.11355271 0.05252758
000330 25 c3 db bb 68 7e a6 bd 8c f3 a8 bd 37 5e f7 bd
       -0.0067066127 -0.08129579 -0.08249578 -0.12078517
000340 d0 07 34 bd fa 83 3a 3d a6 14 b0 3d 5e ff 7e 3d
       -0.043952763 0.04553602 0.085976884 0.062255256
000350 67 1a f4 bd 4e 11 a6 bd 61 53 ae bc 60 91 05 3e
       -0.11919098 -0.08108769 -0.021279993 0.13043737
000360 3b ca 9f 3c dc 07 0f bd 2e 7f 64 3d d3 5c 52 bd
       0.01950561 -0.034919605 0.05578535 -0.051358055
000370 b9 bd b2 bd 5d 8f c9 3d 43 22 7b bd f8 6f dd bc
       -0.08727593 0.098417975 -0.06131197 -0.02703093
000380 d5 5b 09 be 12 d2 b8 3d f7 38 d1 3d 50 49 49 3d
       -0.13413937 0.09024443 0.10215943 0.049142182
000390 c9 8d c0 bd d9 45 08 be f9 48 e0 bd 43 ed cd 3d
       -0.09402043 -0.13307895 -0.109514184 0.1005502
0003a0 11 95 84 3d 23 62 e8 3d f8 aa 90 3d b1 c8 0b 3d
       0.06473745 0.11346843 0.0706386 0.03412694
0003b0 cc 12 ad ba f5 03 d2 bd 7d 99 ec bd 3a 26 01 be
       -0.0013204454 -0.10254661 -0.11552713 -0.12612239
0003c0 ab 17 62 3d f8 94 87 bd 30 4e de bc 55 ed 9e bd
       0.055198353 -0.066202104 -0.027136892 -0.07760111
0003d0 29 49 c9 bc 97 5d c2 bd 35 71 b4 bd 94 34 37 3d
       -0.024571018 -0.09490507 -0.08810655 0.044727877
0003e0 95 24 24 bd 10 7b aa 3d 23 2f 31 bd 85 93 ca bd
       -0.04007395 0.083242536 -0.043257844 -0.09891418
0003f0 62 e5 c2 bc 35 dd 85 bd 11 f9 28 bd a7 72 03 be
       -0.023791019 -0.065363325 -0.041253153 -0.12836705

fc1.bias f4 [50]
000000 35 89 e3 3d 4b b6 4c 3d 59 90 09 3e 7e 92 9e 3d
       0.111101545 0.049978536 0.1343397 0.07742785
000010 99 f5 a1 3d 19 8c 3b bd 48 10 00 3e 94 c1 10 3d
       0.07908172 -0.045787904 0.12506211 0.03534086
000020 1e 29 a3 3d c1 c2 f9 bc c7 fe c7 3d aa f9 f4 3d
       0.07966827 -0.030488374 0.09765392 0.11961682
000030 1f 9a d3 bd 0a 64 e2 3d 94 81 b6 bd 9b 1f be bd
       -0.10332131 0.11054237 -0.08911434 -0.09283372
000040 c6 c6 e6 bd 01 98 1f 3d b8 57 cf bd f7 e7 4f bd
       -0.11268382 0.03896332 -0.10124153 -0.05075833
000050 5c d1 8a bd a2 9c 13 3d ca 8e 07 be 01 33 7d bd
       -0.067782134 0.03603805 -0.13238063 -0.06181622
000060 e6 4a 81 3a 7c 64 46 3c 27 6f 79 bd e4 de 45 3d
       0.000986424 0.012108918 -0.06089702 0.04830827
000070 4c 31 b6 bd da de e9 bd 64 09 9d bc 1f 4d 95 bd
       -0.088961214 -0.11419459 -0.019169517 -0.072901
000080 64 11 ae 3d 58 c1 bc bd 0d 78 39 bc d5 66 65 3d
       0.08499411 -0.09216565 -0.011320126 0.05600627
000090 59 d6 f1 bd 63 c6 d5 3d 15 f4 7a bd 83 4a 16 bd
       -0.11808462 0.1043823 -0.06126793 -0.036692154
0000a0 17 ed a8 bd 3c cf 4d bd 7f f6 54 bd d3 bd f5 bd
       -0.08248346 -0.050246462 -0.05199289 -0.11999097
0000b0 05 ba 3c 3d df 78 e2 b9 00 12 07 3e 3a 50 ba 3d
       0.04607584 -0.00043196135 0.1319046 0.09097333
0000c0 f8 3b f0 3d b1 80 22 3d
       0.11730188 0.03967351
